…
device:  cuda:0
model parameters MLP(
  (fc_1): Linear(in_features=24, out_features=50, bias=True)
  (fc_2): Linear(in_features=50, out_features=100, bias=True)
  (fc_3): Linear(in_features=100, out_features=150, bias=True)
  (fc_4): Linear(in_features=150, out_features=200, bias=True)
  (fc_5): Linear(in_features=200, out_features=6, bias=True)
  (relu): ReLU()
)
----------------------------------------------------------------
        Layer (type)               Output Shape         Param #
================================================================
            Linear-1                   [-1, 50]           1,250
              ReLU-2                   [-1, 50]               0
            Linear-3                  [-1, 100]           5,100
              ReLU-4                  [-1, 100]               0
            Linear-5                  [-1, 150]          15,150
              ReLU-6                  [-1, 150]               0
            Linear-7                  [-1, 200]          30,200
              ReLU-8                  [-1, 200]               0
            Linear-9                    [-1, 6]           1,206
================================================================
Total params: 52,906
Trainable params: 52,906
Non-trainable params: 0
----------------------------------------------------------------
Input size (MB): 0.02
Forward/backward pass size (MB): 0.01
Params size (MB): 0.20
Estimated Total Size (MB): 0.23
----------------------------------------------------------------
+-------------+------------+
…
